…
/raid/home/automathon_2024/account13/.local/lib/python3.10/site-packages/torch/cuda/__init__.py:118: UserWarning: CUDA initialization: CUDA unknown error - this may be due to an incorrectly set up environment, e.g. changing env variable CUDA_VISIBLE_DEVICES after program start. Setting the available devices to be zero. (Triggered internally at ../c10/cuda/CUDAFunctions.cpp:108.)
  return torch._C._cuda_getDeviceCount() > 0
==========================================================================================
Layer (type:depth-idx)                   Output Shape              Param #
==========================================================================================
DeepfakeDetector                         [32, 1]                   --
├─Conv3d: 1-1                            [32, 32, 8, 254, 254]     2,624
├─ReLU: 1-2                              [32, 32, 8, 254, 254]     --
├─MaxPool3d: 1-3                         [32, 32, 4, 127, 127]     --
├─Conv3d: 1-4                            [32, 64, 2, 125, 125]     55,360
├─ReLU: 1-5                              [32, 64, 2, 125, 125]     --
├─MaxPool3d: 1-6                         [32, 64, 1, 62, 62]       --
├─Flatten: 1-7                           [32, 246016]              --
├─Linear: 1-8                            [32, 1]                   246,017
├─Sigmoid: 1-9                           [32, 1]                   --
==========================================================================================
Total params: 304,001
Trainable params: 304,001
Non-trainable params: 0
Total mult-adds (G): 98.71
==========================================================================================
Input size (MB): 251.66
Forward/backward pass size (MB): 4740.12
Params size (MB): 1.22
Estimated Total Size (MB): 4993.00
…
