…
nknown error - this may be due to an incorrectly set up environment, e.g. changing env variable CUDA_VISIBLE_DEVICES after program start. Setting the available devices to be zero. (Triggered internally at ../c10/cuda/CUDAFunctions.cpp:108.)
  return torch._C._cuda_getDeviceCount() > 0
Training model:
==========================================================================================
Layer (type:depth-idx)                   Output Shape              Param #
==========================================================================================
DeepfakeDetector                         [32, 1]                   --
├─Conv3d: 1-1                            [32, 32, 8, 254, 254]     2,624
├─ReLU: 1-2                              [32, 32, 8, 254, 254]     --
├─MaxPool3d: 1-3                         [32, 32, 4, 127, 127]     --
├─Conv3d: 1-4                            [32, 64, 2, 125, 125]     55,360
├─ReLU: 1-5                              [32, 64, 2, 125, 125]     --
├─MaxPool3d: 1-6                         [32, 64, 1, 62, 62]       --
├─Flatten: 1-7                           [32, 246016]              --
├─Linear: 1-8                            [32, 1]                   246,017


















































































































































































































































































































100%|███████████████████████████████████████████████████████████████████████████████████▋| 309/310 [13:25<00:02,  2.61s/it]
…
