…
0), args: ('https://api.wandb.ai/files/automathon2024/automathon/v2s4f62c/file_stream',), kwargs: {'json': {'files': {'output.log': {'offset': 3, 'content': ['2024-05-01T12:44:09.535424 ===============================================================================================\n', '2024-05-01T12:44:09.535424 Layer (type:depth-idx)                        Output Shape              Param #\n', '2024-05-01T12:44:09.535424 ===============================================================================================\n', '2024-05-01T12:44:09.535424 DeepfakeDetector                              [32, 1]                   --\n', '2024-05-01T12:44:09.535424 ├─ResNet: 1-1                                 [32, 1000]                --\n', '2024-05-01T12:44:09.535424 │    └─Conv2d: 2-1                            [32, 64, 128, 128]        (9,408)\n', '2024-05-01T12:44:09.535424 │    └─BatchNorm2d: 2-2                       [32, 64, 128, 128]        (128)\n', '2024-05-01T12:44:09.535424 │    └─ReLU: 2-3                              [32, 64, 128, 128]        --\n', '2024-05-01T12:44:09.535424 │    └─MaxPool2d: 2-4                         [32, 64, 64, 64]          --\n', '2024-05-01T12:44:09.535424 │    └─Sequential: 2-5                        [32, 64, 64, 64]          --\n', '2024-05-01T12:44:09.535424 │    │    └─BasicBlock: 3-1                   [32, 64, 64, 64]          (73,984)\n', '2024-05-01T12:44:09.535424 │    │    └─BasicBlock: 3-2                   [32, 64, 64, 64]          (73,984)\n', '2024-05-01T12:44:09.535424 │    └─Sequential: 2-6                        [32, 128, 32, 32]         --\n', '2024-05-01T12:44:09.535424 │    │    └─BasicBlock: 3-3                   [32, 128, 32, 32]         (230,144)\n', '2024-05-01T12:44:09.535424 │    │    └─BasicBlock: 3-4                   [32, 128, 32, 32]         (295,424)\n', '2024-05-01T12:44:09.535424 │    └─Sequential: 2-7                        [32, 256, 16, 16]         --\n', '2024-05-01T12:44:09.535424 │    │    └─BasicBlock: 3-5                   [32, 256, 16, 16]         (919,040)\n', '2024-05-01T12:44:09.535424 │    │    └─BasicBlock: 3-6                   [32, 256, 16, 16]         (1,180,672)\n', '2024-05-01T12:44:09.535424 │    └─Sequential: 2-8                        [32, 512, 8, 8]           --\n', '2024-05-01T12:44:09.535424 │    │    └─BasicBlock: 3-7                   [32, 512, 8, 8]           (3,673,088)\n', '2024-05-01T12:44:09.535424 │    │    └─BasicBlock: 3-8                   [32, 512, 8, 8]           (4,720,640)\n', '2024-05-01T12:44:09.535424 │    └─SelectAdaptivePool2d: 2-9              [32, 512]                 --\n', '2024-05-01T12:44:09.535424 │    │    └─AdaptiveAvgPool2d: 3-9            [32, 512, 1, 1]           --\n', '2024-05-01T12:44:09.535424 │    │    └─Flatten: 3-10                     [32, 512]                 --\n', '2024-05-01T12:44:09.535424 │    └─Linear: 2-10                           [32, 1000]                (513,000)\n', '2024-05-01T12:44:09.535424 ├─Flatten: 1-2                                [32, 1000]                --\n', '2024-05-01T12:44:09.535424 ├─Linear: 1-3                                 [32, 1]                   1,001\n', '2024-05-01T12:44:09.535424 ├─Sigmoid: 1-4                                [32, 1]                   --\n', '2024-05-01T12:44:09.535424 ===============================================================================================\n', '2024-05-01T12:44:09.535424 Total params: 11,690,513\n', '2024-05-01T12:44:09.535424 Trainable params: 1,001\n', '2024-05-01T12:44:09.535424 Non-trainable params: 11,689,512\n', '2024-05-01T12:44:09.535424 Total mult-adds (G): 75.82\n', '2024-05-01T12:44:09.535424 ==
…
