…
torch.Size([32, 10, 3, 256, 256])
torch.Size([32, 10, 3, 256, 256])
torch.Size([32, 10, 3, 256, 256])
torch.Size([32, 10, 3, 256, 256])
torch.Size([32, 10, 3, 256, 256])
torch.Size([32, 10, 3, 256, 256])
torch.Size([32, 10, 3, 256, 256])
torch.Size([32, 10, 3, 256, 256])
torch.Size([32, 10, 1])
===============================================================================================
Layer (type:depth-idx)                        Output Shape              Param #
===============================================================================================
DeepfakeDetector                              [32, 1]                   --
├─ResNet: 1-1                                 [32, 1000]                --
│    └─Conv2d: 2-1                            [32, 64, 128, 128]        (9,408)
│    └─BatchNorm2d: 2-2                       [32, 64, 128, 128]        (128)
│    └─ReLU: 2-3                              [32, 64, 128, 128]        --
│    └─MaxPool2d: 2-4                         [32, 64, 64, 64]          --
│    └─Sequential: 2-5                        [32, 64, 64, 64]          --
│    │    └─BasicBlock: 3-1                   [32, 64, 64, 64]          (73,984)
│    │    └─BasicBlock: 3-2                   [32, 64, 64, 64]          (73,984)
│    └─Sequential: 2-6                        [32, 128, 32, 32]         --
│    │    └─BasicBlock: 3-3                   [32, 128, 32, 32]         (230,144)
│    │    └─BasicBlock: 3-4                   [32, 128, 32, 32]         (295,424)
│    └─Sequential: 2-7                        [32, 256, 16, 16]         --
│    │    └─BasicBlock: 3-5                   [32, 256, 16, 16]         (919,040)
│    │    └─BasicBlock: 3-6                   [32, 256, 16, 16]         (1,180,672)
│    └─Sequential: 2-8                        [32, 512, 8, 8]           --
│    │    └─BasicBlock: 3-7                   [32, 512, 8, 8]           (3,673,088)
│    │    └─BasicBlock: 3-8                   [32, 512, 8, 8]           (4,720,640)
│    └─SelectAdaptivePool2d: 2-9              [32, 512]                 --
│    │    └─AdaptiveAvgPool2d: 3-9            [32, 512, 1, 1]           --
│    │    └─Flatten: 3-10                     [32, 512]                 --
│    └─Linear: 2-10                           [32, 1000]                (513,000)
├─Flatten: 1-2                                [32, 1000]                --
├─Linear: 1-3                                 [32, 1]                   1,001
├─ResNet: 1-4                                 [32, 1000]                (recursive)
│    └─Conv2d: 2-11                           [32, 64, 128, 128]        (recursive)
│    └─BatchNorm2d: 2-12                      [32, 64, 128, 128]        (recursive)
│    └─ReLU: 2-13                             [32, 64, 128, 128]        --
│    └─MaxPool2d: 2-14                        [32, 64, 64, 64]          --
│    └─Sequential: 2-15                       [32, 64, 64, 64]          (recursive)
│    │    └─BasicBlock: 3-11                  [32, 64, 64, 64]          (recursive)
│    │    └─BasicBlock: 3-12                  [32, 64, 64, 64]          (recursive)
│    └─Sequential: 2-16                       [32, 128, 32, 32]         (recursive)
│    │    └─BasicBlock: 3-13                  [32, 128, 32, 32]         (recursive)
│    │    └─BasicBlock: 3-14                  [32, 128, 32, 32]         (recursive)
│    └─Sequential: 2-17                       [32, 256, 16, 16]         (recursive)
│    │    └─BasicBlock: 3-15                  [32, 256, 16, 16]         (recursive)
│    │    └─BasicBlock: 3-16                  [32, 256, 16, 16]         (recursive)
│    └─Sequential: 2-18                       [32, 512, 8, 8]           (recursive)
│    │    └─BasicBlock: 3-17                  [32, 512, 8, 8]           (recursive)
│    │    └─BasicBlock: 3-18                  [32, 512, 8, 8]           (recursive)
│    └─SelectAdaptivePool2d: 2-19             [32, 512]                 --
│    │    └─AdaptiveAvgPool2d: 3-19           [32, 512, 1, 1]           --
│    │    └─Flatten: 3-20                     [32, 512]                 --
│    └─Linear: 2-20                           [32, 1000]                (recursive)
├─Flatten: 1-5                                [32, 1000]                --
├─Linear: 1-6                                 [32, 1]                   (recursive)
├─ResNet: 1-7                                 [32, 1000]                (recursive)
│    └─Conv2d: 2-21                           [32, 64, 128, 128]        (recursive)
│    └─BatchNorm2d: 2-22                      [32, 64, 128, 128]        (recursive)
│    └─ReLU: 2-23                             [32, 64, 128, 128]        --
│    └─MaxPool2d: 2-24                        [32, 64, 64, 64]          --
│    └─Sequential: 2-25                       [32, 64, 64, 64]          (recursive)
│    │    └─BasicBlock: 3-21                  [32, 64, 64, 64]          (recursive)
│    │    └─BasicBlock: 3-22                  [32, 64, 64, 64]          (recursive)
│    └─Sequential: 2-26                       [32, 128, 32, 32]         (recursive)
│    │    └─BasicBlock: 3-23                  [32, 128, 32, 32]         (recursive)
…
│    │    └─BasicBlock: 3-94                  [32, 128, 32, 32]         (recursive)
│    └─Sequential: 2-97                       [32, 256, 16, 16]         (recursive)
│    │    └─BasicBlock: 3-95                  [32, 256, 16, 16]         (recursive)
│    │    └─BasicBlock: 3-96                  [32, 256, 16, 16]         (recursive)
│    └─Sequential: 2-98                       [32, 512, 8, 8]           (recursive)
│    │    └─BasicBlock: 3-97                  [32, 512, 8, 8]           (recursive)
│    │    └─BasicBlock: 3-98                  [32, 512, 8, 8]           (recursive)
│    └─SelectAdaptivePool2d: 2-99             [32, 512]                 --
│    │    └─AdaptiveAvgPool2d: 3-99           [32, 512, 1, 1]           --
│    │    └─Flatten: 3-100                    [32, 512]                 --
│    └─Linear: 2-100                          [32, 1000]                (recursive)
├─Flatten: 1-29                               [32, 1000]                --
├─Linear: 1-30                                [32, 1]                   (recursive)
├─Linear: 1-31                                [32, 1]                   11
├─Sigmoid: 1-32                               [32, 1]                   --
===============================================================================================
Total params: 11,690,524
Trainable params: 1,012
Non-trainable params: 11,689,512
Total mult-adds (G): 758.16
===============================================================================================
Input size (MB): 251.66
Forward/backward pass size (MB): 16612.01
Params size (MB): 46.76
Estimated Total Size (MB): 16910.43
…
