
Using cuda
Training model:
==========================================================================================
Layer (type:depth-idx)                   Output Shape              Param #
==========================================================================================
DeepfakeDetector                         [32, 1]                   --
├─Conv3d: 1-1                            [32, 16, 8, 254, 254]     1,312
├─LeakyReLU: 1-2                         [32, 16, 8, 254, 254]     --
├─MaxPool3d: 1-3                         [32, 16, 4, 127, 127]     --
├─Conv3d: 1-4                            [32, 32, 2, 125, 125]     13,856
├─LeakyReLU: 1-5                         [32, 32, 2, 125, 125]     --
├─MaxPool3d: 1-6                         [32, 32, 1, 62, 62]       --
├─Flatten: 1-7                           [32, 123008]              --
├─Linear: 1-8                            [32, 1]                   123,009
├─Sigmoid: 1-9                           [32, 1]                   --
==========================================================================================
Total params: 138,177
Trainable params: 138,177
Non-trainable params: 0
Total mult-adds (G): 35.53
==========================================================================================
Input size (MB): 251.66
Forward/backward pass size (MB): 2370.06
Params size (MB): 0.55
Estimated Total Size (MB): 2622.27
…
