
Training model:
==========================================================================================
Layer (type:depth-idx)                   Output Shape              Param #
==========================================================================================
DeepfakeDetector                         [32, 1]                   11,689,512
├─Flatten: 1-1                           [32, 1966080]             --
├─Linear: 1-2                            [32, 1]                   1,966,081
├─Sigmoid: 1-3                           [32, 1]                   --
==========================================================================================
Total params: 13,655,593
Trainable params: 1,966,081
Non-trainable params: 11,689,512
Total mult-adds (M): 62.91
==========================================================================================
Input size (MB): 251.66
Forward/backward pass size (MB): 0.00
Params size (MB): 7.86
Estimated Total Size (MB): 259.52
==========================================================================================
==========================================================================================
Layer (type:depth-idx)                   Output Shape              Param #
==========================================================================================
ResNet                                   [32, 1000]                --
├─Conv2d: 1-1                            [32, 64, 128, 128]        (9,408)
├─BatchNorm2d: 1-2                       [32, 64, 128, 128]        (128)
├─ReLU: 1-3                              [32, 64, 128, 128]        --
├─MaxPool2d: 1-4                         [32, 64, 64, 64]          --
├─Sequential: 1-5                        [32, 64, 64, 64]          --
│    └─BasicBlock: 2-1                   [32, 64, 64, 64]          --
│    │    └─Conv2d: 3-1                  [32, 64, 64, 64]          (36,864)
│    │    └─BatchNorm2d: 3-2             [32, 64, 64, 64]          (128)
│    │    └─Identity: 3-3                [32, 64, 64, 64]          --
│    │    └─ReLU: 3-4                    [32, 64, 64, 64]          --
│    │    └─Identity: 3-5                [32, 64, 64, 64]          --
│    │    └─Conv2d: 3-6                  [32, 64, 64, 64]          (36,864)













































100%|██████████| 310/310 [01:32<00:00,  3.34it/s]

















